…
Module warp.sim.collide 3b78b77 load on device 'cuda:0' took 8.35 ms  (cached)
Module warp.sim.integrator_featherstone 18b3327 load on device 'cuda:0' took 6.08 ms  (cached)
Module envs.abstract_contact_environment 8e8d790 load on device 'cuda:0' took 0.99 ms  (cached)
Module integrators.integrator_neural ee402cd load on device 'cuda:0' took 2.00 ms  (cached)
[91m [NeuralEnvironment] Created a DUMMY Neural Integrator. [0m
number of parameters: 10.93M
Model = 
 ModelMixedInput(
  (encoders): ModuleDict(
    (low_dim): MLPBase(
      (body): Sequential()
    )
  )
  (transformer_model): GPT(
    (transformer): ModuleDict(
      (wte): Linear(in_features=423, out_features=384, bias=True)
      (wpe): Embedding(32, 384)
      (drop): Dropout(p=0.0, inplace=False)
      (h): ModuleList(
        (0-5): 6 x Block(
          (ln_1): LayerNorm()
          (attn): CausalSelfAttention(
            (c_attn): Linear(in_features=384, out_features=1152, bias=False)
            (c_proj): Linear(in_features=384, out_features=384, bias=False)
            (attn_dropout): Dropout(p=0.0, inplace=False)
            (resid_dropout): Dropout(p=0.0, inplace=False)
          )
          (ln_2): LayerNorm()
          (mlp): MLP(
            (c_fc): Linear(in_features=384, out_features=1536, bias=False)
            (gelu): GELU(approximate='none')
            (c_proj): Linear(in_features=1536, out_features=384, bias=False)
            (dropout): Dropout(p=0.0, inplace=False)
          )
        )
      )
      (ln_f): LayerNorm()
    )
    (lm_head): Linear(in_features=384, out_features=384, bias=False)
  )
  (model): MLPDeterministic(
    (feature_net): MLPBase(
      (body): Sequential(
        (0): Linear(in_features=384, out_features=64, bias=True)
        (1): ReLU()
      )
    )
    (output_net): Linear(in_features=64, out_features=37, bias=True)
  )
)
# Model Parameters =  10971429
Traceback (most recent call last):
  File "train.py", line 130, in <module>
    algo = SequenceModelTrainer(
  File "/playground/neural-robot-dynamics/algorithms/sequence_model_trainer.py", line 32, in __init__
    super().__init__(neural_env, cfg, model_checkpoint_path, device)
  File "/playground/neural-robot-dynamics/algorithms/vanilla_trainer.py", line 159, in __init__
…
